global_model.pth (torch, 4369 bytes, 5 tensors)

fc1.weight f4 [16, 8]
0	0x3e1bd70e	0.15218756
1	0x3f0d7042	0.55249417
2	0xbe75c5ae	-0.2400119
3	0x3bc85e92	0.0061147893
4	0xbe855f7b	-0.26049408
5	0x3ed74922	0.42047983
6	0xbd90824a	-0.07056101
7	0x3d1bf676	0.03807684
8	0xbe91d7cd	-0.28484955
9	0xbec6b70c	-0.3881153
10	0xbe531aea	-0.20615736
11	0xbe9e59e3	-0.30927953
12	0xbea2cb5a	-0.3179577
13	0x3de03dd8	0.10949296
14	0xbe8c8a80	-0.27449417
15	0x3d7eb12f	0.062180694
16	0x3e656268	0.2240082
17	0x3e50a140	0.20374012
18	0x3e276a30	0.16349101
19	0x3e709f44	0.23498255
20	0xbc488580	-0.01223886
21	0x3ea46fb0	0.3211646
22	0xbe86666a	-0.2625001
23	0x3e964bde	0.29354757
24	0xbe9430d4	-0.28943503
25	0xbe819253	-0.2530695
26	0x3e5ac48c	0.21364039
27	0x3e0c9dcd	0.13732071
28	0xbe4a0906	-0.19730005
29	0x3dc544ba	0.09632249
30	0x3e07d5c6	0.13265142
31	0xbea6175e	-0.32439703
32	0x3e45fb78	0.19334209
33	0xbe8673b0	-0.26260138
34	0xbd8ad495	-0.06778828
35	0x3e855bc2	0.26046568
36	0xbe22b31b	-0.15888636
37	0xbe847bb9	-0.25875643
38	0xbe56ee3e	-0.2098932
39	0xbe282ce0	-0.16423368
40	0xbe87be40	-0.26512337
41	0xbd2babca	-0.041911878
42	0x3e94362a	0.28947574
43	0x3e580e52	0.21099213
44	0x3bf7a026	0.007556933
45	0x3e6eac3e	0.23307893
46	0xbdf04841	-0.11732531
47	0x3ecd4696	0.40092915
48	0xbe4e80c0	-0.20166302
49	0xbe8e72a2	-0.27821833
50	0x3d6615eb	0.056173246
51	0x3e30b9d2	0.17258385
52	0x3e6fbefb	0.23412697
53	0xbe44d17e	-0.1922054
54	0xbe50ab33	-0.20377807
55	0x3e67e159	0.22644557
56	0xbe90ec44	-0.28305256
57	0x3dc2703e	0.09494065
58	0xbbd553e5	-0.006510245
59	0xbe70d797	-0.23519741
60	0x3e5a7da6	0.21336994
61	0xbeacf0a2	-0.33777338
62	0xbe8a59b0	-0.2702155
63	0x3e631ccc	0.22178954
64	0x3e64fa0c	0.2236101
65	0xbe179115	-0.14801438
66	0x3e9d27d3	0.30694446
67	0x3e53f368	0.20698321
68	0xbd936d6e	-0.071986064
69	0x3da53128	0.080660164
70	0x3e47d346	0.19514188
71	0xbe2d3e0e	-0.16918203
72	0xbe7b0634	-0.24514085
73	0x3e4d3164	0.20038372
74	0x3e2ad26a	0.16681829
75	0x3db50470	0.08838737
76	0xbe8e405d	-0.2778348
77	0x3e3accc6	0.18242177
78	0x3e02d73c	0.12777418
79	0xbe10fb1b	-0.14158289
80	0x3db749ff	0.089496605
81	0x3ec61418	0.38687205
82	0x3e125e7e	0.14293858
83	0x3e7bae00	0.24578094
84	0xbd00d102	-0.031449325
85	0x3e71c597	0.23610531
86	0x3e2bffd8	0.16796815
87	0xbcd10030	-0.025512785
88	0x3e68dbe8	0.22740138
89	0x3eb64754	0.35601294
90	0xbd5465f8	-0.051855057
91	0xbda0482a	-0.07826264
92	0xbe819eb6	-0.253164
93	0x3e32d6ee	0.17464802
94	0xbd9ed5dc	-0.07755634
95	0xbe852702	-0.26006323
96	0xbd2dfb76	-0.04247614
97	0x3ec9c50a	0.3940814
98	0xbdcd995e	-0.10039018
99	0xbea414d0	-0.3204713
100	0xbe84440c	-0.25833166
101	0xbdede711	-0.11616338
102	0x3ebb4d2d	0.36582318
103	0xbd536dba	-0.051618315
104	0x3b83e7b4	0.004025424
105	0x3e513616	0.20430788
106	0xbbcb5800	-0.006205559
107	0x3dc9be24	0.098507196
108	0xbd444e91	-0.04792649
109	0x3cfd1426	0.030893397
110	0x3e0d2d0a	0.13786712
111	0xbe743baa	-0.23850885
112	0xbe842dde	-0.25816244
113	0x3d0e6340	0.03476262
114	0xbe0fd910	-0.14047647
115	0xbe788401	-0.24269105
116	0xbe3d0e8f	-0.18462585
117	0x3e8ac510	0.27103472
118	0xbe9800d2	-0.29688126
119	0x3e96df9a	0.2946747
120	0x3d6a5106	0.057206176
121	0x3e6378e1	0.2221408
122	0xbe93c2d1	-0.2885957
123	0x3e1904ba	0.1494321
124	0xbe19581c	-0.14975017
125	0xbd842fe2	-0.064544454
126	0xbe9493b9	-0.29018953
127	0x3e907b8a	0.28219253

fc1.bias f4 [16]
0	0x3e3d1d14	0.18468124
1	0x3ead5d3a	0.3386019
2	0xbe0631b6	-0.131049
3	0x3ea81942	0.3283177
4	0x3eacf0cf	0.33777472
5	0xbc86b39b	-0.016443064
6	0xbdc30c69	-0.095238514
7	0x3e7d5f85	0.24743469
8	0xbe0b0dee	-0.13579533
9	0xbe2efcd6	-0.17088637
10	0x3c451aee	0.012030346
11	0x3e33c72e	0.1755645
12	0xbe08d6e2	-0.13363221
13	0x3e9532ba	0.29140264
14	0x3ddbb00c	0.10726938
15	0x3ea1888a	0.31549484

fc2.weight f4 [12, 16]
0	0xbd44bb59	-0.04803023
1	0xbdd8a9bf	-0.105792515
2	0x3e2f1ccc	0.17100829
3	0xbe6a14e4	-0.22859532
4	0xbe1ee789	-0.15518011
5	0xbd96845c	-0.07349464
6	0xbd0fdcab	-0.035122555
7	0x3e4e2d8d	0.20134564
8	0x3be7ff20	0.007079974
9	0x3e694156	0.2277883
10	0xbdb40af4	-0.08791152
11	0xbe046c54	-0.12931949
12	0xbe526179	-0.20544995
13	0x3e62abb4	0.22135812
14	0xbdc6e702	-0.0971203
15	0x3e3bef7a	0.18353072
16	0x3e2af006	0.16693124
17	0xbe6813aa	-0.22663751
18	0xbba4fbd8	-0.005034905
19	0xbe39e614	-0.18154174
20	0x3de85e94	0.11346164
21	0x3c3ca9c4	0.011515085
22	0x3e6ae558	0.2293905
23	0x3e50d0c3	0.20392136
24	0x3e395e30	0.18102336
25	0x3d4fb077	0.0507054
26	0x3d3d2f10	0.04618746
27	0x3e17bae4	0.14817387
28	0xbdc7c7c4	-0.09754899
29	0xbe41edee	-0.18938419
30	0x3e518096	0.20459208
31	0xbe31e9be	-0.17374322
32	0x3e288529	0.16457047
33	0xbe086e04	-0.13323218
34	0x3d9144d6	0.070932075
35	0xbdd1e827	-0.10249358
36	0x3d862fb8	0.065520704
37	0x3d1a4fa8	0.037673622
38	0x3dc4abf0	0.09603107
39	0xbd35012e	-0.04419058
40	0xbe006a02	-0.12540439
41	0x3de66086	0.11248879
42	0x3ea39d6c	0.3195604
43	0xbe48595f	-0.19565342
44	0xbd9b2206	-0.07574849
45	0x3e23ab78	0.15983379
46	0xbe6e1e40	-0.23253727
47	0x3d736d5a	0.059430458
48	0x3e5edc25	0.21763666
49	0x3cdcab70	0.026937217
50	0x3e2eb798	0.17062223
51	0xbd0aaa4b	-0.03385381
52	0x3acd0023	0.00156403
53	0x3e372e1e	0.17888686
54	0x3e466499	0.19374312
55	0x3e1be656	0.15224585
56	0xbe72dd24	-0.23717171
57	0x3e3d8816	0.18508944
58	0x3ddf6dd4	0.1090962
59	0x3e76c7ef	0.24099706
60	0x3e6774a9	0.22603096
61	0x3e5c4150	0.2150929
62	0x3de3e4f8	0.11127657
63	0xbe399f89	-0.18127264
64	0xbe689906	-0.22714624
65	0x3cbe8155	0.02325503
66	0xbe07d9f2	-0.13266733
67	0x3dfbceb9	0.122952886
68	0xbdaf2cc8	-0.08553463
69	0xbe3e2c63	-0.1857162
70	0x3da2863e	0.07935761
71	0x3d7d516e	0.061845236
72	0x3e526344	0.2054568
73	0x3e256aca	0.16154018
74	0xbda2cf0a	-0.07949646
75	0x3e3a082e	0.18167183
76	0x3e190b86	0.14945802
77	0xbdd3c560	-0.10340381
78	0x3cc4d80d	0.024028802
79	0xbcfb163c	-0.03065025
80	0x3e861ca0	0.26193714
81	0x3d98ce06	0.07461171
82	0x3eaaa45a	0.33328515
83	0xbdace5b8	-0.08442253
84	0xbe1b1ab8	-0.15146911
85	0x3e8c6b1e	0.27425474
86	0x3e46135f	0.19343327
87	0x3d4bf84d	0.049797345
88	0xbe2bb12f	-0.16766809
89	0xbbe5bd15	-0.0070110657
90	0x3d1f2749	0.038855825
91	0x3ea7a8b2	0.32745892
92	0x3e9688d2	0.2940126
93	0x3e731948	0.23740113
94	0xbe33e7c8	-0.17568886
95	0x3e0b24c2	0.1358824
96	0xbe29502c	-0.1653449
97	0x3e3f0200	0.18653107
98	0x3e61c1e8	0.22046626
99	0x3bbda5aa	0.005787571
100	0x3e2e9d1b	0.17052118
101	0xbe5b5df2	-0.21422556
102	0x3e2da2b0	0.16956592
103	0x3e7b961a	0.24568978
104	0xbe70d4e1	-0.23518707
105	0xbdc0c744	-0.09413007
106	0x3d364e14	0.044508055
107	0xbcfc6ca0	-0.030813515
108	0x3d41bae4	0.047297373
109	0xbdf08526	-0.11744146
110	0xbccae482	-0.024767164
111	0x3e08299a	0.1329712
112	0xbe25a676	-0.16176781
113	0x3c09702b	0.008388559
114	0x3e265684	0.1624394
115	0xbd8cc83e	-0.06874131
116	0xbde66e66	-0.112515256
117	0xbe747694	-0.23873359
118	0x3cc85b90	0.024457723
119	0xbda14f8c	-0.078765005
120	0xbdacf038	-0.084442556
121	0x3c0e1a32	0.008673238
122	0x3e20950a	0.15681854
123	0x3d8cba07	0.068714194
124	0x3e0c6a10	0.13712335
125	0xbdcc3963	-0.09971883
126	0x3d557f77	0.052123513
127	0x3e04c607	0.12966166
128	0x3e20707f	0.15667914
129	0xbd1ac033	-0.03778095
130	0x3c6ff6a3	0.014646205
131	0xbe74b18c	-0.23895854
132	0xbd014904	-0.031563774
133	0xbd65859e	-0.05603563
134	0xbe13e0ca	-0.14441219
135	0x3e1a0fe4	0.15045124
136	0xbd18ff10	-0.03735262
137	0xbe58dace	-0.21177217
138	0xbe49773a	-0.19674388
139	0x3e851b07	0.25997183
140	0xbdf45ddc	-0.11931965
141	0xbe2e6eca	-0.1703445
142	0x3b99ea48	0.004697118
143	0xbda67dec	-0.081294864
144	0x3e0326f2	0.12807825
145	0xbe7bfad8	-0.24607408
146	0x3e815f21	0.2526789
147	0x3e355637	0.1770867
148	0xbd45c0c2	-0.04827953
149	0xbe6f038c	-0.23341197
150	0x3d4fa8e1	0.050698165
151	0x3d929130	0.071565986
152	0x3e75b1c7	0.23993598
153	0xbd33a566	-0.043858908
154	0x3e32d89a	0.1746544
155	0x3e15d942	0.14633659
156	0x3e52ddde	0.20592448
157	0x3c942b90	0.018087178
158	0x3e0e07fa	0.1387023
159	0x3da5d170	0.08096588
160	0x3e56cd1c	0.2097668
161	0xbd0e2be2	-0.03470982
162	0x3e21138f	0.15730117
163	0x3e249aa2	0.16074613
164	0xbb7437ca	-0.0037264698
165	0x3cbff9e0	0.02343458
166	0xbe79c33a	-0.2439088
167	0x3dd76cc4	0.10518792
168	0x3e793e45	0.2434016
169	0x3d28e293	0.041231703
170	0xbe13732d	-0.14399405
171	0xbc7557a6	-0.01497451
172	0xbd521919	-0.051293466
173	0x3da17e9a	0.078854755
174	0xbdbe0417	-0.09278124
175	0xbd226ba6	-0.039653443
176	0xbed94c70	-0.4244113
177	0x3ee3a9c6	0.44465464
178	0x3def90b9	0.116975255
179	0x3eb09b88	0.3449366
180	0x3eaeeca0	0.34164906
181	0xbdb3fd1c	-0.08788511
182	0xbd72c5aa	-0.05927054
183	0x3e57a581	0.21059228
184	0xbde899c7	-0.11357456
185	0x3e078dc2	0.1323767
186	0xbe901a91	-0.2814527
187	0x3d3b89a2	0.045785554
188	0x3cfc0bf0	0.030767411
189	0x3e2cba0a	0.16867843
190	0xbe3c1a0e	-0.18369314
191	0xbdbbe669	-0.091748066

fc2.bias f4 [12]
0	0xbe22fe16	-0.15917239
1	0xbe1751c4	-0.14777285
2	0x3d891be0	0.0669477
3	0xbe3fdc5b	-0.18736403
4	0xbe2958e0	-0.1653781
5	0xbd9bb51c	-0.07602903
6	0xbe5afc3b	-0.21385281
7	0xbe209574	-0.15682012
8	0x3d1e7648	0.03868702
9	0x3d0d62d4	0.034518078
10	0x3d9abe60	0.075558424
11	0x3eaa3ac0	0.33247948

fc3.weight f4 [1, 12]
0	0xbde2a4f4	-0.110666186
1	0x3d09325a	0.033495285
2	0x3e8db7ea	0.27679378
3	0x3e86b1e1	0.26307586
4	0x3e4b477d	0.1985149
5	0x3f021a11	0.50821024
6	0xbe1ab560	-0.15108252
7	0xbdb61d0f	-0.08892261
8	0x3e35c306	0.17750177
9	0x3e50a2a0	0.20374537
10	0x3dca0d28	0.098657906
11	0xbf50aea5	-0.81516486
