global_model.pth (torch, 4369 bytes, 5 tensors)

fc1.weight f4 [16, 8]
000000 f3 8c 8c 3e bb 3a 15 be 9c 8f 2b 3e 5a 30 0d bd
       0.27451286 -0.14573185 0.16754001 -0.03446994
000010 d4 24 9b 3e 96 49 91 3e 9c cb 84 be e0 1f 54 3c
       0.30301535 0.28376454 -0.25936592 0.012947053
000020 0b b4 2d be 86 3e 39 bc 5c 72 4f be 40 ab ce bd
       -0.16963212 -0.011306411 -0.20258468 -0.10091257
000030 04 32 94 3e ac 0b 13 be fe 46 da bd c4 f9 34 3d
       0.2894441 -0.14359921 -0.10658072 0.044183508
000040 68 37 66 3e 1d 37 1d be da 6b 8e 3e 72 db c5 bd
       0.22482073 -0.15353055 0.2781666 -0.096609965
000050 4e f2 82 be 16 b5 b2 bd f5 46 5a 3e 2f f8 a9 3e
       -0.2557549 -0.08725946 0.2131613 0.33197162
000060 70 ff e9 3d 22 b1 e4 be 98 e0 28 be d1 38 92 3e
       0.11425674 -0.44666392 -0.16491926 0.28558972
000070 ca df a3 bc e2 63 1e 3e d7 00 ff 3c 48 4f 1d be
       -0.020004172 0.1546779 0.03112833 -0.15362275
000080 4d 94 e1 3d 92 95 01 3e 62 44 29 3c 12 5b 62 bc
       0.11014614 0.12654713 0.010331245 -0.013815658
000090 b8 52 11 3e c4 92 54 bd 60 03 09 3e 9a 69 b5 be
       0.14191711 -0.05189778 0.13380194 -0.3543213
0000a0 af 19 c7 3d 51 c0 b0 3e 9c 26 d1 3d 98 87 af 3e
       0.09721696 0.34521726 0.10212442 0.34283137
0000b0 c9 8c a1 3c 7d f7 97 be d2 5d 75 bd fe 8b ac bd
       0.019720452 -0.29681006 -0.059903927 -0.08425139
0000c0 f8 4f 19 3c 27 b8 47 3e 1f 6e b5 bd 70 68 86 bd
       0.009357445 0.19503842 -0.088588946 -0.065628886
0000d0 73 74 e8 3d 12 d4 3f 3e 21 a6 12 be cc 27 8a be
       0.11350336 0.18733242 -0.14321186 -0.26983488
0000e0 34 c0 21 be 52 8b e8 3e cc 9f 36 bc 89 ac f4 bd
       -0.15795976 0.45418793 -0.011146497 -0.11946971
0000f0 eb 65 2e 3e 08 1f 2b bb 9c 2d 71 3e 20 2b b3 3e
       0.17031066 -0.0026111025 0.23552555 0.3499384
000100 06 07 b8 be d4 70 a6 be 50 1a 29 3d 82 73 a2 be
       -0.35942858 -0.32507956 0.04128486 -0.3172875
000110 7e 61 c2 bd 17 31 8d 3e 8a d9 06 bc e2 85 8d bc
       -0.094912514 0.27576515 -0.008230576 -0.017275754
000120 28 d2 27 3e a2 de 80 be 10 e9 9d 3e aa 0f 73 3e
       0.16388762 -0.25169855 0.30841875 0.23736444
000130 96 d0 70 3d 74 ad 65 bc 48 61 2c 3e 01 47 46 be
       0.058792673 -0.014018405 0.16833985 -0.19363023
000140 a4 71 b9 be 36 57 83 be 7e 28 18 be 94 ef 60 3e
       -0.36219513 -0.25652474 -0.14859197 0.21966392
000150 a7 e1 8d bc 37 1e 7f 3e f6 5a a7 3e 02 11 6b 3e
       -0.017319513 0.2491387 0.32686585 0.22955707
000160 fd 68 b1 be 54 94 37 be 48 6c 27 be f1 94 f3 3d
       -0.34650412 -0.17927676 -0.163499 0.11893643
000170 4a f2 13 3e 1b c3 c6 be 7c e4 9a bd 18 8f 37 be
       0.14447895 -0.3882073 -0.07563111 -0.1792568
000180 bf 44 f5 bd fc b8 dc be 69 dc 7d 3e 07 71 fe bd
       -0.11976003 -0.43109882 0.24791111 -0.12423902
000190 6d 7b 61 3d 50 21 6e be be 6a 28 be 98 df 3c be
       0.05504935 -0.23254895 -0.16446969 -0.18444669
0001a0 42 d8 95 3e 7e c4 cf bc d0 7c eb 3c 46 cf b5 3d
       0.29266554 -0.02536225 0.028746039 0.08877425
0001b0 eb 11 ec bd 85 8a d0 3e 7b 56 cf 3d 90 88 88 3e
       -0.11526855 0.40730682 0.10123917 0.2666669
0001c0 80 34 91 3e 98 8f a7 3d e5 89 23 3e 68 25 f0 bd
       0.28360367 0.08181685 0.15970571 -0.11725885
0001d0 71 f1 58 be 5a ee 85 be d2 ce a4 be d0 09 ae 3e
       -0.21185853 -0.2615841 -0.3218904 0.3399186
0001e0 e6 57 a1 bd cf 32 3f be b2 73 a5 3e 08 20 1b 3e
       -0.078780934 -0.18671726 0.3231483 0.15148938
0001f0 9c d4 50 3e b2 88 a0 be 12 02 63 3e 8e dc f4 3d
       0.20393604 -0.3135429 0.22168759 0.1195613

fc1.bias f4 [16]
000000 20 e3 3c 3e 9c 7d 3e 3e be de 13 3e 02 7c 7d bd
       0.18446016 0.18602604 0.14440438 -0.06188584
000010 c9 7f 5c be ef 28 e2 bd 24 4c 14 bd 6c d1 1c 3e
       -0.21533121 -0.11042964 -0.036205426 0.15314263
000020 af 15 85 3e 55 42 95 be a7 d7 44 3e 66 f8 51 3e
       0.25993106 -0.2915217 0.1922289 0.20504913
000030 22 44 e1 3e 7d b2 57 3e 50 9f 55 be 49 3c 91 3e
       0.43997294 0.21064182 -0.20861554 0.28366306

fc2.weight f4 [12, 16]
000000 80 41 ef 3d fe 62 26 3e 3c f5 d3 3d 54 77 4b 3e
       0.11682415 0.162487 0.10349509 0.19869739
000010 61 a7 63 bd c4 50 3d be 01 89 f8 3d 8a 2b b2 bd
       -0.055579547 -0.18487841 0.121355064 -0.08699711
000020 fe d7 12 be ac b6 77 3c 5e a4 53 3e 1e 6d de 3d
       -0.14340207 0.015119236 0.2066817 0.10860656
000030 db ec c4 3d 18 a5 24 3e 52 13 1f 3d 40 9c 2f be
       0.09615489 0.16078603 0.038836785 -0.17149448
000040 63 ba d9 3d 39 b4 6d bd d0 32 51 3e 74 1c 5d 3e
       0.106312536 -0.0580332 0.2042954 0.21592885
000050 00 33 c1 3d 8b 91 30 3e b0 b9 2b 3d d5 5c 02 be
       0.094335556 0.1724302 0.041925132 -0.12730725
000060 8c ac 9e 3e 59 ce 92 bd 7f a0 84 3d 62 35 bf 3d
       0.30991018 -0.07168264 0.06475925 0.09336354
000070 62 3a ff bb dc 18 ec bd b5 a5 95 3d d6 36 08 3b
       -0.007788942 -0.11528179 0.07306997 0.0020784638
000080 f6 ef 36 3d c4 c0 b1 3d a9 bc 7f 3d 80 5a 02 3d
       0.04466244 0.08679345 0.06243578 0.03182459
000090 f0 7f 53 be fc f8 4c be 5e 40 51 3e 92 a5 11 3e
       -0.20654273 -0.20016855 0.2043471 0.14223316
0000a0 22 2d 11 be fa 7c 52 be 2e 4c 29 3d c4 9c 37 3c
       -0.14177373 -0.20555487 0.041332416 0.011206809
0000b0 9c 3c 48 3e b7 54 3c be 86 6c 4d 3e 50 32 26 be
       0.1955437 -0.18391691 0.2006093 -0.1623013
0000c0 38 26 79 3e 8a 57 57 be ea b5 f6 bd 46 eb bf 3d
       0.24330986 -0.21029487 -0.12046416 0.09371047
0000d0 ca fc 53 be 48 eb 6f 3d de 44 8a bd be 0a 01 3d
       -0.207019 0.05857399 -0.067514166 0.031504385
0000e0 1a 64 02 be aa 64 66 3e 27 6d 98 bd 88 50 08 3d
       -0.12733498 0.22499338 -0.07442694 0.033279926
0000f0 a0 4f 48 bd e0 28 d3 bd d4 7b d0 bd bf bf f0 bd
       -0.04890406 -0.10310531 -0.10179868 -0.11755323
000100 18 b2 0e 3d 74 08 11 3e cd df 3d 3e d4 3b 25 be
       0.034837812 0.14163381 0.18542404 -0.16136104
000110 b5 3c 4c 3e ce 0e 20 be 03 b5 7e 3d e8 79 5f be
       0.19945033 -0.15630648 0.062184345 -0.21823847
000120 a2 f8 9d 3d 84 8a 2c 3e 03 65 1f 3c a1 b3 ff bc
       0.077134386 0.16849715 0.009728673 -0.031213583
000130 8d e8 51 3d 5c 1d 93 3e 60 46 58 bc 23 30 87 bc
       0.05124717 0.28733337 -0.013200372 -0.016502446
000140 8c 13 2f 3e a0 60 32 be 93 99 c4 3d 0a af 78 be
       0.170973 -0.17419672 0.095996045 -0.24285522
000150 e8 2b 4f 3e f4 91 4a bb f8 64 53 3e 18 a5 79 3e
       0.20231593 -0.0030909749 0.20643985 0.24379385
000160 d4 01 d1 3d 6c 11 cd 3d 5a c2 21 be c1 26 78 bd
       0.10205427 0.100130886 -0.15796795 -0.060583834
000170 9c 5e 3d be 57 47 99 3d 72 0b 61 be e0 d0 66 3c
       -0.18493122 0.0748431 -0.21977022 0.014087886
000180 90 10 45 3c f8 b0 6d bc 3c 2b 40 bd de b2 56 3e
       0.012027875 -0.014507525 -0.04691623 0.2096667
000190 d6 b7 68 3e d2 38 6b bc 78 5a 16 bd ae 6f 95 be
       0.22726378 -0.014356809 -0.03670737 -0.29186767
0001a0 53 7c 27 3e b0 fd 59 bd d4 59 11 3a 66 9b 5a 3e
       0.1635602 -0.05322045 0.00055446965 0.21348342
0001b0 6b 77 d2 3e e8 54 84 be 76 10 57 be ec 62 b0 3d
       0.41106734 -0.25846028 -0.21002373 0.08612618
0001c0 ec 10 00 3d 14 4f 39 bb b4 bd 08 bd d8 cc 17 be
       0.031266138 -0.0028275894 -0.03338404 -0.14824235
0001d0 bb e4 fb 3d 18 69 1c 3e ba 2b f3 3d 30 11 8f 3e
       0.12299486 0.15274465 0.118735746 0.279428
0001e0 0a 43 da 3d 8e d5 63 3e 8c 2c 73 3e c2 5d 29 be
       0.10657318 0.22249433 0.23747462 -0.16539672
0001f0 ca 5c 8b be 3e 59 c7 3d ed 43 08 3d c4 57 28 3c
       -0.2721923 0.097338185 0.033267904 0.010274831
000200 89 ea 6d be f7 d9 c1 bc b9 98 61 be a0 54 0f 3e
       -0.23234 -0.023663504 -0.22030915 0.13997126
000210 36 ad 23 3e e4 31 cf bd 97 3a 45 be 44 2a 2f 3b
       0.15984043 -0.10116938 -0.19260632 0.0026728073
000220 f6 31 b9 3d cd 79 0d be 34 a7 7d 3e f3 7e 31 3e
       0.090427324 -0.13815995 0.24770814 0.17333584
000230 e4 96 e0 bd 22 f3 c0 bd 00 39 03 3e 96 a3 66 be
       -0.1096628 -0.09421374 0.12814713 -0.2252334
000240 01 8b 84 3c f0 48 69 3e 98 52 56 3e 6c 7f bd 3d
       0.016179563 0.2278173 0.20929945 0.092528194
000250 51 45 4e 3e 32 4b be bd 1e 9b 2d be d0 d4 12 be
       0.2014363 -0.09291686 -0.16953704 -0.14338994
000260 0c 1b 05 be c3 06 9b 3c 0a 44 e6 3d 62 ac 9d 3e
       -0.12998599 0.018924123 0.11243446 0.3079558
000270 a0 22 c8 3e de 98 81 be ae f7 47 be ac b4 33 bb
       0.39088917 -0.2531194 -0.19528076 -0.0027420921
000280 3e 47 55 be dc 65 8e 3c c0 c7 a0 3c 7a 18 87 bd
       -0.20827958 0.017382555 0.019626498 -0.065964654
000290 c6 95 51 3e 22 73 89 3e 2d ff 6a 3d 10 cf 5a 3e
       0.2046729 0.26845652 0.05737226 0.2136805
0002a0 a7 e0 f9 3c 48 9b bb 3d 0a 36 2b be 06 65 3b bd
       0.03050263 0.09160477 -0.16719833 -0.04575064
0002b0 f1 a4 b5 3d 73 b4 69 bd b4 fa 62 3e 7a ee 18 bd
       0.08869351 -0.057056855 0.22165948 -0.037336804
0002c0 f2 3b 5d bd 90 1a a1 3d fc f1 a3 3d d1 26 5b 3e
       -0.054012246 0.078663945 0.08005139 0.21401526
0002d0 b2 5e af 3c 7a 4d e3 bb 5e 93 1b bd 14 db 66 be
       0.021407459 -0.006936726 -0.037982337 -0.22544509
0002e0 f6 d6 06 3e 98 dc 9d 3c 3d 05 33 be 4c b9 81 bd
       0.13167939 0.019270226 -0.17482467 -0.06334171
0002f0 a3 fb a7 bd 8e 64 40 3c 6c df 76 3c c6 fd 33 3e
       -0.08202293 0.011742724 0.015067916 0.17577276

fc2.bias f4 [12]
000000 f6 84 8b be 0d b1 46 3d 92 68 10 3e 94 f3 30 be
       -0.2724988 0.048508693 0.1410239 -0.17280418
000010 7e 4f 2d be 1c b6 8e 3e 86 7b 9e 3e 3f d8 7f 3e
       -0.16924855 0.27873313 0.30953616 0.24984835
000020 60 8c 52 be ea 14 95 3e 44 f3 84 bd bc 35 0c be
       -0.20561361 0.2911752 -0.06491712 -0.13692373

fc3.weight f4 [1, 12]
000000 19 01 56 3e 7d ea 8b be 4c db a9 bd 7e 34 93 be
       0.20898856 -0.27327338 -0.08293781 -0.28750986
000010 66 2b 8c 3e 45 bc cb 3e 20 a9 2d bf 54 eb d5 3e
       0.2737686 0.39792076 -0.6783619 0.41781104
000020 da 81 99 3d 35 d8 fb be 25 7c 8c 3e 48 8b 3b 3e
       0.0749547 -0.4918839 0.27438465 0.1831485
