global_model.pth (torch, 4369 bytes, 5 tensors)

fc1.weight f4 [16, 8]
0.04392472 -0.3973102 0.102060586 -0.33202904 -0.01989221 -0.39639267 0.24103966 -0.03740234
-0.3154292 0.26968652 -0.05559446 0.22892311 -0.20845123 0.24867646 0.21052766 0.16714773
0.27582258 0.010042512 -0.061224084 -0.27043778 0.20875078 0.15328518 0.05375104 -0.014570665
0.18886137 -0.0079630865 -0.3210014 -0.121365994 0.32860976 -0.29372066 -0.17633142 0.11429091
0.32127374 -0.21385072 -0.12352511 0.28980142 0.039680257 0.2690668 -0.25764984 -0.039752755
0.3239763 0.12204072 -0.029686071 0.13009112 0.12293363 0.31515908 -0.113719344 -0.07729503
-0.06671308 -0.2733143 0.032424532 -0.18469489 -0.1801445 0.11811544 0.053886086 0.14477783
-0.14353526 -0.10345683 -0.28849375 0.2594381 0.36188135 -0.31970263 -0.054258022 0.23201221
-0.27739957 0.103579484 -0.035015795 0.3343726 0.27160054 -0.056784276 -0.18588436 0.33695918
-0.19498496 -0.3587923 0.24508402 0.14727402 0.24034894 0.08347066 -0.2680207 -0.40836456
-0.0034640622 -0.26723126 -0.19464746 0.32945558 -0.10466233 0.28048027 0.23319411 -0.06597045
0.21770056 -0.39960152 0.09793016 -0.014382627 -0.19476752 -0.14318737 -0.35711232 -0.33659333
0.3361023 -0.13878188 -0.09492369 -0.27025056 0.11049761 0.17455915 -0.036989734 0.2230658
0.25971878 -0.3924728 -0.23001584 0.19878799 0.25629056 -0.019220445 -0.018895093 -0.35890156
-0.0013030706 0.3351723 -0.05672097 -0.21879077 0.077792436 -0.26378 0.35351372 0.31978226
0.06770803 0.11890471 -0.074178055 0.036390997 -0.20968017 -0.06594056 0.07717703 -0.1348148
00000000: 68ea 333d 3e6c cbbe 2405 d13d b6ff a9be
00000010: fdf4 a2bc fbf3 cabe 1ad3 763e 3233 19bd
00000020: f07f a1be 5a14 8a3e 04b7 63bd d26a 6a3e
00000030: 3d74 55be 0ba5 7e3e 9094 573e c628 2b3e
00000040: 9e38 8d3e 5989 243c 1bc6 7abd d276 8abe
00000050: c4c2 553e caf6 1c3e 0d2a 5c3d ccb9 6ebc
00000060: e064 413e 9b77 02bc 4c5a a4be bc8e f8bd
00000070: 8a3f a83e 8e62 96be 3990 34be 5a11 ea3d
00000080: fe7d a43e affb 5abe bcfa fcbd da60 943e
00000090: c487 223d 20c3 893e aeea 83be c9d3 22bd
000000a0: 39e0 a53e 7cf0 f93d 3430 f3bc 9b36 053e
000000b0: a1c4 fb3d 885c a13e b0e5 e8bd db4c 9ebd
000000c0: dea0 88bd daef 8bbe 96cf 043d a820 3dbe
000000d0: cd77 38be 82e6 f13d a8b7 5c3d a440 143e
000000e0: e8fa 12be 2de1 d3bd 74b5 93be 12d5 843e
000000f0: 8348 b93e 10b0 a3be a93d 5ebd 9c94 6d3e
00000100: 5107 8ebe 7b21 d43d b96c 0fbd e332 ab3e
00000110: 3a0f 8b3e a196 68bd 7858 3ebe ea85 ac3e
00000120: 23aa 47be a0b3 b7be 4ef7 7a3e 00cf 163e
00000130: 081e 763e aaf2 aa3d 023a 89be 2915 d1be
00000140: 5205 63bb 89d2 88be aa51 47be 67ae a83e
00000150: 3459 d6bd 1c9b 8f3e 70ca 6e3e 841b 87bd
00000160: e5ec 5e3e 9298 ccbe 9c8f c83d 1ca5 6bbc
00000170: 2371 47be b69f 12be 6dd7 b6be f655 acbe
00000180: 9a15 ac3e d61c 0ebe 5a67 c2bd 485e 8abe
00000190: 924c e23d a2bf 323e 8c82 17bd 5c6b 643e
000001a0: dcf9 843e 32f2 c8be 4689 6bbe 148f 4b3e
000001b0: 8438 833e 3274 9dbc e2c9 9abc f2c1 b7be
000001c0: cbcb aaba b49b ab3e 3f54 68bd b00a 60be
000001d0: a451 9f3d 2c0e 87be c0ff b43e 80ba a33e
000001e0: 82aa 8a3d 5084 f33d aaea 97bd ba0e 153d
000001f0: 66b6 56be d80b 87bd fe0e 9e3d e40c 0abe

fc1.bias f4 [16]
0.3628584 0.017381081 0.07476796 -0.2769739 -0.10240262 0.30560488 0.27861243 -0.08313796
-0.046126448 0.22690333 0.112007484 -0.0028225915 -0.26947892 0.11540179 -0.30820623 0.30619085
00000000: 94c8 b93e c562 8e3c f21f 993d 86cf 8dbe
00000010: 77b8 d1bd 3e78 9c3e 4aa6 8e3e 3c44 aabd
00000020: 16ef 3cbd 5959 683e 2e64 e53d 3afb 38bb
00000030: 24f9 89be c657 ec3d 35cd 9dbe 0cc5 9c3e

fc2.weight f4 [12, 16]
0.33172745 -0.24145368 0.031882264 -0.20309648 0.22499818 -0.14863916 0.09008388 -0.11858243
0.17690253 0.38649166 -0.10097957 0.26142228 0.060613617 -0.122184604 0.12794963 -0.15306121
0.014652552 0.05891069 -0.1423668 -0.04893094 0.21817525 -0.16404364 0.12576139 0.049389556
0.15862249 0.16573232 0.21113446 0.36709526 -0.23578854 0.3623628 -0.24519812 0.13627738
-0.17816524 0.19663623 0.08990276 0.21977338 -0.1932229 0.06714175 -0.12829947 0.15868218
-0.11131325 -0.24381533 0.09429045 -0.07712593 -0.14880829 0.23658744 -0.13548219 0.0735338
0.3955219 -0.1247556 -0.015063984 -0.12763259 -0.08411075 -0.071932286 0.18614504 0.19053686
-0.14473343 0.14851093 0.013495633 0.15377128 0.11401828 0.13266616 0.16934194 0.058449335
-0.08955763 -0.13108508 0.020524442 0.02644519 0.18012923 -0.0037230155 0.20524392 0.0035222098
-0.07026236 -0.22879708 -0.0026110548 0.2414476 -0.20152634 -0.05849914 0.11123669 -0.07232836
-0.13295946 -0.2460813 -0.14928356 -0.24701561 0.2018663 -0.23010392 -0.034114733 -0.103964314
-0.022481853 -0.016319226 -0.18583362 0.2441783 -0.20404986 -0.12119319 -0.022896597 -0.15565269
0.023414847 0.12925401 -0.0039510713 -0.23331803 0.14644289 -0.24836822 0.074269414 0.028760795
0.16493571 -0.17434156 0.06289223 -0.13538247 0.030514926 -0.08438265 0.019190375 0.130099
0.019006064 0.04681551 -0.16981569 0.15488854 -0.23585778 0.11928778 0.10642272 0.008925829
-0.20107007 -0.036077775 -0.18274786 0.07154511 -0.14122507 -0.02236147 0.11694184 0.072669625
-0.24673587 -0.13380668 0.037931234 -0.031152606 0.045938402 -0.21813557 0.16573289 -0.1884414
-0.15733305 0.09060177 -0.041546762 -0.1404618 0.17734712 -0.11491123 -0.2036114 -0.027208656
-0.2087079 0.05136931 0.024467131 0.2002571 -0.13390699 0.08903263 0.12366314 0.12103951
0.010141747 0.17632732 0.16463268 -0.16838743 0.16763972 -0.12477429 -0.21396023 -0.24693199
-0.19062701 -0.16575971 -0.17410454 -0.009258883 0.06974902 -0.07199034 0.039088428 0.18709621
0.12153073 -0.2157785 0.06232463 0.14159423 -0.19324735 0.04931058 0.20815681 0.16907114
0.0950481 0.17633146 0.110686466 0.16482294 -0.18069157 -0.10859354 0.02617376 0.19399035
0.16928081 0.12370687 -0.045596894 0.04962661 -0.10197906 0.03326355 0.008795618 -0.25803345
00000000: 2ed8 a93e a23f 77be fa96 023d 86f8 4fbe
00000010: ec65 663e dd34 18be e67d b83d 58db f2bd
00000020: f025 353e 3ce2 c53e 60ce cebd 24d9 853e
00000030: fc45 783d ec3b fabd 3a05 033e 14bc 1cbe
00000040: 4211 703c 564c 713d 9ac8 11be cf6b 48bd
00000050: 5569 5f3e 0efb 27be 98c7 003e b44c 4a3d
00000060: ef6d 223e bcb5 293e a233 583e e9f3 bb3e
00000070: 8d72 71be 9e87 b93e 3715 7bbe 4c8c 0b3e
00000080: f370 36be 025b 493e f01e b83d 460c 613e
00000090: 39dc 45be 9d81 893d f060 03be 957d 223e
000000a0: 34f8 e3bd baaa 79be 5a1b c13d 33f4 9dbd
000000b0: 3361 18be fa43 723e d8bb 0abe e498 963d
000000c0: d981 ca3e dd7f ffbd eece 76bc 1eb2 02be
000000d0: 4242 acbd 3c51 93bd ce9c 3e3e 181c 433e
000000e0: 0035 14be 4013 183e ca1c 5d3c 3876 1d3e
000000f0: 6a82 e93d a3d9 073e f967 2d3e 9268 6f3d
00000100: fe69 b7bd 2b3b 06be e022 a83c 95a3 d83c
00000110: cc73 383e d6fd 73bb 762b 523e e0d4 663b
00000120: b6e5 8fbd c849 6abe 3b1e 2bbb 0a3e 773e
00000130: ec5c 4ebe cb9c 6fbd 10d0 e33d e420 94bd
00000140: 8626 08be bcfc 7bbe cadd 18be a9f1 7cbe
00000150: 0ab6 4e3e 5da0 6bbe e4bb 0bbd 3eeb d4bd
00000160: dd2b b8bc e6af 85bc 2b4b 3ebe e009 7a3e
00000170: 72f2 50be 2334 f8bd a591 bbbc 6b63 1fbe
00000180: 7ed0 bf3c 2a5b 043e fd77 81bb ecea 6ebe
00000190: 20f5 153e 3d54 7ebe 901a 983d c29b eb3c
000001a0: e8e4 283e 9886 32be a4cd 803d b4a1 0abe
000001b0: 70fa f93c d0d0 acbd 2235 9d3c ac38 053e
000001c0: 9bb2 9b3c 9fc1 3f3d 2ae4 2dbe 1a9b 1e3e
000001d0: b484 71be 274d f43d 28f4 d93d a43d 123c
000001e0: 50e5 4dbe 4ac6 13bd 4122 3bbe 3e86 923d
000001f0: 4e9d 10be 672f b7bc 347f ef3d d0d3 943d
00000200: 54a8 7cbe 9e04 09be c85d 1b3d c033 ffbc
00000210: e829 3c3d ee5e 5fbe e2b5 293e c8f6 40be
00000220: ea1b 21be 6c8d b93d f02c 2abd 38d5 0fbe
00000230: 7c9a 353e 9456 ebbd 827f 50be b0e4 debc
00000240: 86b7 55be a068 523d 4b6f c83c 3210 4d3e
00000250: ea1e 09be bd56 b63d 1a43 fd3d 90e3 f73d
00000260: 9229 263c 268f 343e 7895 283e c16d 2cbe
00000270: bfa9 2b3e aa89 ffbd 6418 5bbe bddb 7cbe
00000280: ba33 43be eabc 29be 7648 32be 92b2 17bc
00000290: 93d8 8e3d ac6f 93bd 301b 203d 2696 3f3e
000002a0: 1ae5 f83d 0af5 5cbe 1c48 7f3d 14fe 103e
000002b0: a2e2 45be e4f9 493d 0f27 553e fc20 2d3e
000002c0: 94a8 c23d 3c90 343e 96af e23d 58c7 283e
000002d0: 3607 39be 4a66 debd 5a6a d63c 68a5 463e
000002e0: f357 2d3e 075a fd3d cfc3 3abd 4645 4b3d
000002f0: 66da d0bd 5c3f 083d 7f1b 103c f61c 84be

fc2.bias f4 [12]
0.054762423 0.033865336 -0.15543777 0.024648558 -0.0994264 0.14486998 -0.2187873 -0.014432725
-0.24620417 0.22523129 0.05696484 0.12529555
00000000: 904e 603d 61b6 0a3d 142b 1fbe c6eb c93c
00000010: 12a0 cbbd cc58 143e c709 60be 3c77 6cbc
00000020: f21c 7cbe 08a3 663e f753 693d 7a4d 003e

fc3.weight f4 [1, 12]
-0.38588694 -0.43701535 0.10878642 -0.42017168 0.041922174 -0.057847224 0.097110584 -0.07954162
-0.004203379 0.07066654 0.1869911 -0.015137374
00000000: f992 c5be 7ac0 dfbe 6acb de3d be20 d7be
00000010: 96b6 2b3d 36f1 6cbd eae1 c63d b8e6 a2bd
00000020: 80bc 89bb 9eb9 903d 987a 3f3e c002 78bc
