global_model.pth (torch, 4369 bytes, 5 tensors)

fc1.weight f4 [16, 8]
000000 9c 18 98 3e ca 64 51 3e 60 a4 a2 bd 14 51 8a be
       0.29706275 0.20448604 -0.07941508 -0.27014983
000010 52 88 f7 3d ba ff 79 bd 36 d4 9f 3e 75 31 a2 be
       0.12086548 -0.061034895 0.31216592 -0.31678358
000020 bc 54 a7 be 9f 95 3d 3e 69 20 80 3e a4 1e a1 3e
       -0.32681835 0.18514107 0.25024727 0.3146869
000030 9c 21 53 be 5f 1c 40 3e f0 9b 33 3e e5 53 9d be
       -0.2061829 0.18760823 0.17539954 -0.3072807
000040 3e 79 c2 be 53 0e c2 be 64 b5 70 3d e2 ba 2f 3e
       -0.37983125 -0.37901554 0.058766738 0.17161134
000050 f7 61 9b 3d 04 0f e6 bd 9b 68 19 bd 08 a5 1b be
       0.07587045 -0.11233333 -0.037453275 -0.15199673
000060 ca fe aa be 5c fa 8e be 46 42 41 3d ec f5 52 3e
       -0.33397514 -0.27925384 0.047182344 0.20601624
000070 66 88 91 3d ce d0 2b be 40 0f 7c 3e 57 f0 70 3e
       0.07106094 -0.16778871 0.24615192 0.23529182
000080 56 b1 96 be 4a d0 99 3e c2 9a a5 3e d8 b4 94 3e
       -0.29432172 0.30041724 0.32344633 0.29044223
000090 ec 07 a5 be 82 18 ab 3e b6 13 ba 3e 02 3d be bd
       -0.32232606 0.33417135 0.36343163 -0.0928898
0000a0 18 e2 76 be 69 13 a7 be 1e e5 e5 bd 9a 87 4e 3e
       -0.24109685 -0.32631996 -0.11225341 0.20168915
0000b0 56 c7 f2 3d 93 b2 ff bc f0 1c 44 bd 8c 64 a2 be
       0.118544266 -0.03121308 -0.04787916 -0.31717336
0000c0 6c cb 30 3e d0 6e 0f be a5 b0 a6 bc c1 c2 93 3e
       0.172651 -0.14007115 -0.020347903 0.28859523
0000d0 43 73 4d be fe 50 29 bd a0 4d 61 be d8 2f 99 be
       -0.200635 -0.041337006 -0.22002268 -0.29919314
0000e0 01 5f 00 3e 98 0e c3 3e 92 f3 93 be 50 7b 49 3e
       0.12536241 0.38097072 -0.28896767 0.19675946
0000f0 98 71 46 bc 32 e1 b1 3e db b9 12 bd 3c c7 23 be
       -0.012112044 0.34742123 -0.035821777 -0.1599397
000100 d6 d5 d8 3c 62 57 23 3c 6d 00 75 bd 9e 70 26 bd
       0.026469152 0.009969564 -0.05981486 -0.040634744
000110 b7 8d 88 3d 85 cc 2d be e0 45 5d be af 7b 6b 3e
       0.06667655 -0.1697255 -0.21608686 0.229964
000120 a2 e3 9e 3d 19 0b 17 be a4 71 aa be 67 01 fa 3d
       0.07758261 -0.14750327 -0.33289826 0.12207299
000130 f0 1e 22 3e 2c 26 09 3d c0 b0 01 3e ee a2 7c 3e
       0.15832114 0.03348367 0.12665081 0.24671528
000140 2e b2 5a 3e aa 89 a7 3e fc d5 f9 bc 72 8b 51 bd
       0.21357033 0.32722217 -0.030497544 -0.051158376
000150 ff cc 5d 3e f9 3b 04 be 02 47 9d be 52 41 7d be
       0.21660231 -0.12913503 -0.30718237 -0.24731949
000160 5a 01 75 3e 84 ba 25 bd 8e a4 3f be 42 52 6d be
       0.23926297 -0.04046108 -0.18715116 -0.2317591
000170 b6 c6 37 3e ef f5 16 3e ac 03 4f 3e 38 63 16 3e
       0.17946896 0.14742254 0.20216244 0.14686286
000180 a4 7b a0 be 02 95 6c bc 99 30 2e be 79 f9 cc bd
       -0.3134433 -0.014439823 -0.17010726 -0.10008521
000190 dd e9 78 be 5c e4 11 3e d4 58 23 3d 38 79 14 be
       -0.24307962 0.14247268 0.039879635 -0.14499366
0001a0 2d 5d 17 3d 8f fd 81 3e 8b 16 a9 bd 84 34 77 bd
       0.036954094 0.25388762 -0.08256253 -0.060352817
0001b0 d8 f1 8a 3e 9e b0 9f 3d 68 d5 31 bd 69 ee d6 3d
       0.27137637 0.07797359 -0.04341641 0.10494692
0001c0 5b 0b 84 3e a6 f7 a1 be c7 5b 12 3e 90 0f 8f bd
       0.25789914 -0.31634253 0.14292823 -0.0698539
0001d0 de cc 1b 3e 08 cf 85 be c7 a3 df 3c 5a ec a6 be
       0.1521487 -0.26134515 0.027299775 -0.32602197
0001e0 4b 0d 59 3e 53 45 6a bd dc 39 21 be bd be 8a be
       0.21196477 -0.05719502 -0.15744728 -0.27098647
0001f0 89 97 10 be 23 03 6d 3e d6 42 71 be 0c ea b7 be
       -0.14120306 0.23145728 -0.23560652 -0.3592075

fc1.bias f4 [16]
000000 a9 d6 74 3e ca f7 af 3e 6f d9 98 3d 38 72 19 be
       0.23910011 0.34368736 0.07463347 -0.14984977
000010 ae 01 87 bd ab 6c d5 3e 24 d8 cb bd e8 8a 50 be
       -0.06592117 0.4168447 -0.09953335 -0.20365489
000020 8e 97 83 be 88 2e 0b 3e f6 b4 52 bd a2 a9 88 be
       -0.25701565 0.13591969 -0.05144211 -0.2669192
000030 79 82 1d 3e 3e a3 a6 3e 5d 26 7b be aa 04 91 3e
       0.15381803 0.3254642 -0.24526353 0.2832387

fc2.weight f4 [12, 16]
000000 82 c9 fa bd e6 8f 76 be f9 26 d5 3d 59 b1 4a be
       -0.12245466 -0.2407833 0.10407824 -0.19794215
000010 b4 40 cf bd 59 ff b6 bd 78 81 f1 bd f0 95 3f 3d
       -0.10119763 -0.089354225 -0.11792272 0.04677385
000020 90 ea 57 3e a1 6e 37 3e ec e3 41 be e8 5b 06 be
       0.21085572 0.17913295 -0.18934602 -0.13120997
000030 38 9f 5f be 74 d1 2f bc 26 5c 47 be b2 34 1b bd
       -0.21838081 -0.01073109 -0.19468746 -0.03789205
000040 a4 8f 55 3d 32 f3 76 be 24 87 4b bc ad 56 81 bd
       0.05213894 -0.24116209 -0.012422357 -0.0631536
000050 93 36 93 3d c8 13 19 3e f9 32 66 be cc c7 bd 3c
       0.071881436 0.14948952 -0.22480382 0.02316656
000060 8c 62 1c bc 58 81 47 be 6a 8a 1c 3e 0a a4 41 3e
       -0.00954498 -0.19482934 0.15287176 0.18910232
000070 79 bf 9e bd a6 c6 cf 3d c2 b6 be 3d 97 14 46 3d
       -0.07751364 0.10145311 0.09312202 0.04835948
000080 18 8c 86 3e 96 9c ac bd 4c 86 59 be da 97 3c bd
       0.26278758 -0.08428304 -0.21242636 -0.046043254
000090 b0 b7 b3 bd 40 26 49 3e bc 25 01 3e b6 2f 4f be
       -0.0877527 0.19643497 0.12612051 -0.20233044
0000a0 38 65 2d 3e a2 10 ad 3d 68 3e 69 3d 56 78 5d 3e
       0.16933143 0.08450438 0.05694428 0.21627936
0000b0 d6 0d 0f be 66 3c 99 3c 66 64 72 be 98 e7 e5 bd
       -0.13970122 0.018705558 -0.23671111 -0.112258136
0000c0 d2 93 a1 3c a1 e7 7a 3e f8 1e ed 3b 70 7f c3 bd
       0.019723807 0.24502422 0.007236358 -0.09545791
0000d0 d9 69 51 3e 70 0d 0f be 47 ad 2a bd 50 47 8f 3e
       0.20450534 -0.1396997 -0.041669156 0.27984095
0000e0 f2 be 15 3d bc b0 5e 3e ce aa ce bd b2 3e 2a be
       0.036559053 0.21747106 -0.10091172 -0.16625479
0000f0 80 0a fd 3d e8 68 c2 3c 36 a8 c0 3b 90 f0 61 bd
       0.12355518 0.023731664 0.0058794273 -0.05516106
000100 50 64 66 bd 54 a2 b7 bd 5c 10 51 be 50 87 9b bd
       -0.05624801 -0.089665085 -0.20416397 -0.07594168
000110 e8 03 66 3d 28 7c 89 3d 70 ca c8 bc 74 3c 8c bd
       0.05615607 0.06713134 -0.024510592 -0.06847468
000120 1e f5 66 be e6 42 4f be aa 06 74 3e 20 9e 28 3e
       -0.22554442 -0.20240363 0.23830667 0.1646657
000130 a0 2b 36 bd b8 8b 78 bd 00 18 47 3a 0e a8 14 be
       -0.044475198 -0.06068012 0.0007594824 -0.14517233
000140 20 e1 44 3e c6 cb 1e be 70 e5 19 bd d8 d2 45 3e
       0.19226503 -0.15507421 -0.037572324 0.19318712
000150 5a 96 b9 3d 35 fc 8e be 7c 4a a4 bd 62 0f c0 bd
       0.090618804 -0.27926794 -0.08022019 -0.09377934
000160 fc d0 ae 3c 53 fd 04 be 48 4d a2 3d a8 f3 0d 3c
       0.021339886 -0.1298726 0.079248965 0.008664049
000170 8e 58 62 3c 92 e2 0c b9 c2 7e 7b bc db 52 68 3e
       0.013815058 -0.00013435844 -0.015350046 0.22687857
000180 17 b2 34 3e 32 5f 38 3d 64 9f 58 3d a4 f8 e8 ba
       0.17646061 0.04501266 0.05288638 -0.0017774296
000190 1c 49 16 3e a3 f3 80 3e cf 61 88 3e 20 51 b5 3c
       0.14676327 0.2518588 0.26637122 0.02213341
0001a0 4a dc 00 3d 6e 9b 6d be fa 3f fb bc 14 a2 2d 3e
       0.031460084 -0.23203823 -0.030670155 0.16956359
0001b0 80 c2 db 3d 4f f4 84 3c ae f5 e8 bd c2 75 42 3e
       0.10730457 0.016229777 -0.11374985 0.18990234
0001c0 26 fc 1c 3d da fe 25 3e de 75 6d 3e d5 14 48 be
       0.038326405 0.162105 0.23189494 -0.19539197
0001d0 0c 9e 8a be f6 f9 45 3e 0f 06 8e bd 7c 75 76 be
       -0.27073705 0.19333634 -0.06934749 -0.24068254
0001e0 20 61 e8 bd 9c 31 8e 3c 02 7c 62 be 0a 87 4a be
       -0.1134665 0.01735764 -0.22117618 -0.19778076
0001f0 8b fc 0f 3e d2 55 22 be 8a 83 d0 3c eb 09 10 be
       0.14061181 -0.1585305 0.025453348 -0.14066283
000200 1c 98 e5 3d 52 36 26 be 1c 87 29 3e b0 40 27 be
       0.11210653 -0.16231659 0.16555446 -0.1633327
000210 c4 b4 4c 3e 12 f2 f7 bd fc 64 00 bb fc 94 06 3e
       0.19990832 -0.12106718 -0.0019591441 0.1314277
000220 cb 1e c6 3b 02 3e 68 3d 36 17 bf bd 64 e3 3e be
       0.0060461513 0.05669976 -0.09330599 -0.1864143
000230 64 ce 61 be 1c 38 14 be a3 aa a7 3d a2 1a f6 3d
       -0.22051388 -0.14474529 0.08186843 0.120167986
000240 d1 7c 2f 3e 7e cd c3 bd 68 26 66 bd e3 d5 c0 3d
       0.17137457 -0.09560679 -0.05618897 0.09415796
000250 e8 16 2a be 70 66 f4 bd 2c ba 16 3e e8 8c 71 be
       -0.166103 -0.11933601 0.14719456 -0.23588908
000260 ea 7f 5f 3c a0 49 16 be 3e 87 dd 3d 80 1f 1e be
       0.013641337 -0.14676523 0.10816811 -0.15441704
000270 c2 90 64 3e 66 52 62 be 36 72 e5 3d be 5a 7d be
       0.22320846 -0.22101745 0.11203425 -0.24741647
000280 a4 9c 1d 3d 8e 8e 89 3e 89 92 a2 bc 97 1e 80 3d
       0.038479462 0.26866573 -0.019845264 0.062558345
000290 ee b0 cc 3c 6f aa 04 bd 36 bf 28 be b4 e0 60 3d
       0.02498671 -0.0323891 -0.16479191 0.054901794
0002a0 f6 c6 3a bd 70 dc 90 3d a0 01 67 3d f8 2f 92 bc
       -0.0455999 0.07073295 0.056398034 -0.017845139
0002b0 70 2d 9f 3b ee 7b 31 3e de 2e 79 be 42 2c e2 bd
       0.0048577115 0.17332432 -0.24334285 -0.11043598
0002c0 2d 1a 17 bd aa 3a bd bd ea 33 c3 3e ea 93 87 3e
       -0.036890198 -0.09239705 0.38125545 0.26480037
0002d0 42 17 84 bd 28 02 b6 3e 2e f2 bb bc 36 52 25 be
       -0.064497486 0.3554852 -0.022942629 -0.16144642
0002e0 4e aa 36 be c8 92 f2 bd 6c 48 84 bd 62 13 18 bd
       -0.17838404 -0.118444026 -0.06459126 -0.03712786
0002f0 ee 17 e0 bd 48 3b 7f be a1 46 d4 bc 08 c3 36 3e
       -0.10942064 -0.24924958 -0.025912585 0.17847836

fc2.bias f4 [12]
000000 00 a6 0d be 4c ed 82 be 6d 8b 9e bd b4 c3 2a bd
       -0.13832855 -0.25571668 -0.07741437 -0.041690543
000010 86 d0 4a be a9 3f 1b 3e bc c6 da 3d f1 80 c0 3e
       -0.19806108 0.15161003 0.10682437 0.37598374
000020 4b 90 27 be d6 f6 8d bd 66 f5 1b be 81 de bc 3e
       -0.16363637 -0.06931846 -0.15230331 0.36888507

fc3.weight f4 [1, 12]
000000 46 3b 3c 3e e3 25 87 be f6 10 85 3e 08 07 c6 3e
       0.18381986 -0.26396093 0.25989503 0.3867724
000010 52 4c 89 be 5c 16 93 3e 47 a5 53 be 14 46 cf be
       -0.2681604 0.28727996 -0.20668517 -0.40483153
000020 a2 86 c2 bb a2 75 85 3d a7 1c 07 3e ef 3a 09 bf
       -0.0059364596 0.06516577 0.13194524 -0.5360555
